…
to quantized\n        self.quant = torch.quantization.QuantStub()\n        self.conv = torch.nn.Conv2d(1, 1, 1)\n        self.bn = torch.nn.BatchNorm2d(1)\n        self.relu = torch.nn.ReLU()\n        # DeQuantStub converts tensors from quantized to floating point\n        self.dequant = torch.quantization.DeQuantStub()\n\n    def forward(self, x):\n        x = self.quant(x)\n        x = self.conv(x)\n        x = self.bn(x)\n        x = self.relu(x)\n        x = self.dequant(x)\n        return x\n\n\n# create a model instance\nmodel_fp32 = M()\nmodel_fp32\n\nM(\n  (quant): QuantStub()\n  (conv): Conv2d(1, 1, kernel_size=(1, 1), stride=(1, 1))\n  (bn): BatchNorm2d(1, eps=1e-05, momentum=0.1, affine=True, track_running_stats=True)\n  (relu): ReLU()\n  (dequant): DeQuantStub()\n)\n\n\n\nfrom copy import deepcopy\n\nmodel = deepcopy(model_fp32)\n\nmodel.qconfig = torch.quantization.get_default_qconfig('fbgemm')  # QAT config\n\n\n# model must be set to eval for fusion to work\nmodel.eval()\n\n# fusions: [Conv, Relu], [Conv, BatchNorm], [Conv, BatchNorm, Relu], [Linear, Relu]\ntorch.quantization.fuse_modules(model, [['conv', 'bn', 'relu']], inplace=True)\nmodel  # note 'Identity()'' where 'bn' and 'relu' modules were\n\nM(\n  (quant): QuantStub()\n  (conv): ConvReLU2d(\n    (0): Conv2d(1, 1, kernel_size=(1, 1), stride=(1, 1))\n    (1): ReLU()\n  )\n  (bn): Identity()\n  (relu): Identity()\n  (dequant): DeQuantStub()\n)\n\n\n\n# back to train for QAT\nmodel.train()\n\ntorch.quantization.prepare_qat(model, inplace=True)\n\n# train ...\n\nmodel.eval()\ntorch.quantization.convert(model, inplace=True)\nmodel\n\nM(\n  (quant): Quantize(scale=tensor([1.]), zero_point=tensor([0]), dtype=torch.quint8)\n  (conv): QuantizedConv2d(1, 1, kernel_size=(1, 1), stride=(1, 1), scale=1.0, zero_point=0)\n  (bn): QuantizedBatchNorm2d(1, eps=1e-05, momentum=0.1, affine=True, track_running_stats=True)\n  (relu): ReLU()\n  (dequant): DeQuantize()\n)\n\n\n\n# quantize resnet\n# https://pytorch.org/blog/quantization-in-practice/#quantization-aware-training-qat\n\nimport torchvision \n\nres_model = torchvision.models.resnet18()\nres_model\n\nResNet(\n  (conv1): Conv2d(3, 64, kernel_size=(7, 7), stride=(2, 2), padding=(3, 3), bias=False)\n  (bn1): BatchNorm2d(64, eps=1e-05, momentum=0.1, affine=True, track_running_stats=True)\n  (relu): ReLU(inplace=True)\n  (maxpool): MaxPool2d(kernel_size=3, stride=2, padding=1, dilation=1, ceil_mode=False)\n  (layer1): Sequential(\n    (0): BasicBlock(\n      (conv1): Conv2d(64, 64, kernel_size=(3, 3), stride=(1, 1), padding=(1, 1), bias=False)\n      (bn1): BatchNorm2d(64, eps=1e-05, momentum=0.1, affine=True, track_running_stats=True)\n      (relu): ReLU(inplace=True)\n      (conv2): Conv2d(64, 64, kernel_size=(3, 3), stride=(1, 1), padding=(1, 1), bias=False)\n      (bn2): BatchNorm2d(64, eps=1e-05, momentum=0.1, affine=True, track_running_stats=True)\n    )\n    (1): BasicBlock(\n      (conv1): Conv2d(64, 64, kernel_size=(3, 3), stride=(1, 1), padding=(1, 1), bias=False)\n      (bn1): BatchNorm2d(64, eps=1e-05, momentum=0.1, affine=True, track_running_stats=True)\n      (relu): ReLU(inplace=True)\n      (conv2): Conv2d(64, 64, kernel_size=(3, 3), stride=(1, 1), padding=(1, 1), bias=False)\n      (bn2): BatchNorm2d(64, eps=1e-05, momentum=0.1, affine=True, track_running_stats=True)\n    )\n  )\n  (layer2): Sequential(\n    (0): BasicBlock(\n      (conv1): Conv2d(64, 128, kernel_size=(3, 3), stride=(2, 2), padding=(1, 1), bias=False)\n      (bn1): BatchNorm2d(128, eps=1e-05, momentum=0.1, affine=True, track_running_stats=True)\n      (relu): ReLU(inplace=True)\n      (conv2): Conv2d(128, 128, kernel_size=(3, 3), stride=(1, 1), padding=(1, 1), bias=False)\n      (bn2): BatchNorm2d(128, eps=1e-05, momentum=0.1, affine=True, track_running_stats=True)\n      (downsample): Sequential(\n        (0): Conv2d(64, 128, kernel_size=(1, 1), stride=(2, 2), bias=False)\n        (1): BatchNorm2d(128, eps=1e-05, momentum=0.1, affine=True, track_running_stats=True)\n      )\n    )\n    (1): BasicBlock(\n      (conv1): Conv2d(128, 128, kernel_size=(3, 3), stride=(1, 1), padding=(1, 1), bias=False)\n      (bn1): BatchNorm2d(128, eps=1e-05, momentum=0.1, affine=True, track_running_stats=True)\n      (relu): ReLU(inplace=True)\n      (conv2): Conv2d(128, 128, kernel_size=(3, 3), stride=(1, 1), padding=(1, 1), bias=False)\n      (bn2): BatchNorm2d(128, eps=1e-05, momentum=0.1, affine=True, track_running_stats=True)\n    )\n  )\n  (layer3): Sequential(\n    (0): BasicBlock(\n      (conv1): Conv2d(128, 256, kernel_size=(3, 3), stride=(2, 2), padding=(1, 1), bias=False)\n      (bn1): BatchNorm2d(256, eps=1e-05, momentum=0.1, affine=True, track_running_stats=True)\n      (relu): ReLU(inplace=True)\n      (conv2): Conv2d(256, 256, kernel_size=(3, 3), stride=(1, 1), padding=(1, 1), bias=False)\n      (bn2): BatchNorm2d(256, eps=1e-05, momentum=0.1, affine=True, track_running_stats=True)\n      (downsample): Sequential(\n        (0): Conv2d(128, 256, kernel_size=(1, 1), stride=(2, 2), bias=False)\n        (1): BatchNorm2d(256, eps=1e-05, momentum=0.1, affine=True, track_running_stats=True)\n      )\n    )\n    (1): BasicBlock(\n      (conv1): Conv2d(256, 256, kernel_size=(3, 3), stride=(1, 1), padding=(1, 1), bias=False)\n      (bn1): BatchNorm2d(256, eps=1e-05, momentum=0.1, affine=True, track_running_stats=True)\n      (relu): ReLU(inplace=True)\n      (conv2): Conv2d(256, 256, kernel_size=(3, 3), stride=(1, 1), padding=(1, 1), bias=False)\n      (bn2): BatchNorm2d(256, eps=1e-05, momentum=0.1, affine=True, track_running_stats=True)\n    )\n  )\n  (layer4): Sequential(\n    (0): BasicBlock(\n      (conv1): Conv2d(256, 512, kernel_size=(3, 3), stride=(2, 2), padding=(1, 1), bias=False)\n      (bn1): BatchNorm2d(512, eps=1e-05, momentum=0.1, affine=True, track_running_stats=True)\n      (relu): ReLU(inplace=True)\n      (conv2): Conv2d(512, 512, kernel_size=(3, 3), stride=(1, 1), padding=(1, 1), bias=False)\n      (bn2): BatchNorm2d(512, eps=1e-05, momentum=0.1, affine=True, track_running_stats=True)\n      (downsample): Sequential(\n        (0): Conv2d(256, 512, kernel_size=(1, 1), stride=(2, 2), bias=False)\n        (1): BatchNorm2d(512, eps=1e-05, momentum=0.1, affine=True, track_running_stats=True)\n      )\n    )\n    (1): BasicBlock(\n      (conv1): Conv2d(512, 512, kernel_size=(3, 3), stride=(1, 1), padding=(1, 1), bias=False)\n      (bn1): BatchNorm2d(512, eps=1e-05, momentum=0.1, affine=True, track_running_stats=True)\n      (relu): ReLU(inplace=True)\n      (conv2): Conv2d(512, 512, kernel_size=(3, 3), stride=(1, 1), padding=(1, 1), bias=False)\n      (bn2): BatchNorm2d(512, eps=1e-05, momentum=0.1, affine=True, track_running_stats=True)\n    )\n  )\n  (avgpool): AdaptiveAvgPool2d(output_size=(1, 1))\n  (fc): Linear(in_features=512, out_features=1000, bias=True)\n)\n\n\n\nfrom collections import OrderedDict\n\nmodel = deepcopy(res_model)\n\nmodel = torch.nn.Sequential(\n    OrderedDict([\n        ('quant', torch.quantization.QuantStub()),\n        ('resnet', model),\n        ('dequant', torch.quantization.DeQuantStub())\n    ])\n)\n\nmodel.qconfig = torch.quantization.get_default_qconfig('fbgemm')  # QAT config\n\nmodel\n\nSequential(\n  (quant): QuantStub()\n  (resnet): ResNet(\n    (conv1): Conv2d(3, 64, kernel_size=(7, 7), stride=(2, 2), padding=(3, 3), bias=False)\n    (bn1): BatchNorm2d(64, eps=1e-05, momentum=0.1, affine=True, track_running_stats=True)\n    (relu): ReLU(inplace=True)\n    (maxpool): MaxPool2d(kernel_size=3, stride=2, padding=1, dilation=1, ceil_mode=False)\n    (layer1): Sequential(\n      (0): BasicBlock(\n        (conv1): Conv2d(64, 64, kernel_size=(3, 3), stride=(1, 1), padding=(1, 1), bias=False)\n        (bn1): BatchNorm2d(64, eps=1e-05, momentum=0.1, affine=True, track_running_stats=True)\n        (relu): ReLU(inplace=True)\n        (conv2): Conv2d(64, 64, kernel_size=(3, 3), stride=(1, 1), padding=(1, 1), bias=False)\n        (bn2): BatchNorm2d(64, eps=1e-05, momentum=0.1, affine=True, track_running_stats=True)\n      )\n      (1): BasicBlock(\n        (conv1): Conv2d(64, 64, kernel_size=(3, 3), stride=(1, 1), padding=(1, 1), bias=False)\n        (bn1): BatchNorm2d(64, eps=1e-05, momentum=0.1, affine=True, track_running_stats=True)\n        (relu): ReLU(inplace=True)\n        (conv2): Conv2d(64, 64, kernel_size=(3, 3), stride=(1, 1), padding=(1, 1), bias=False)\n        (bn2): BatchNorm2d(64, eps=1e-05, momentum=0.1, affine=True, track_running_stats=True)\n      )\n    )\n    (layer2): Sequential(\n      (0): BasicBlock(\n        (conv1): Conv2d(64, 128, kernel_size=(3, 3), stride=(2, 2), padding=(1, 1), bias=False)\n        (bn1): BatchNorm2d(128, eps=1e-05, momentum=0.1, affine=True, track_running_stats=True)\n        (relu): ReLU(inplace=True)\n        (conv2): Conv2d(128, 128, kernel_size=(3, 3), stride=(1, 1), padding=(1, 1), bias=False)\n        (bn2): BatchNorm2d(128, eps=1e-05, momentum=0.1, affine=True, track_running_stats=True)\n        (downsample): Sequential(\n          (0): Conv2d(64, 128, kernel_size=(1, 1), stride=(2, 2), bias=False)\n          (1): BatchNorm2d(128, eps=1e-05, momentum=0.1, affine=True, track_running_stats=True)\n        )\n      )\n      (1): BasicBlock(\n        (conv1): Conv2d(128, 128, kernel_size=(3, 3), stride=(1, 1), padding=(1, 1), bias=False)\n        (bn1): BatchNorm2d(128, eps=1e-05, momentum=0.1, affine=True, track_running_stats=True)\n        (relu): ReLU(inplace=True)\n        (conv2): Conv2d(128, 128, kernel_size=(3, 3), stride=(1, 1), padding=(1, 1), bias=False)\n        (bn2): BatchNorm2d(128, eps=1e-05, momentum=0.1, affine=True, track_running_stats=True)\n      )\n    )\n    (layer3): Sequential(\n      (0): BasicBlock(\n        (conv1): Conv2d(128, 256, kernel_size=(3, 3), stride=(2, 2), padding=(1, 1), bias=False)\n        (bn1): BatchNorm2d(256, eps=1e-05, momentum=0.1, affine=True, track_running_stats=True)\n        (relu): ReLU(inplace=True)\n        (conv2): Conv2d(256, 256, kernel_size=(3, 3), stride=(1, 1), padding=(1, 1), bias=False)\n        (bn2): BatchNorm2d(256, eps=1e-05, momentum=0.1, affine=True, track_running_stats=True)\n        (downsample): Sequential(\n          (0): Conv2d(128, 256, kernel_size=(1, 1), stride=(2, 2), bias=False)\n          (1): BatchNorm2d(256, eps=1e-05, momentum=0.1, affine=True, track_running_stats=True)\n        )\n      )\n      (1): BasicBlock(\n        (conv1): Conv2d(256, 256, kernel_size=(3, 3), stride=(1, 1), padding=(1, 1), bias=False)\n        (bn1): BatchNorm2d(256, eps=1e-05, momentum=0.1, affine=True, track_running_stats=True)\n        (relu): ReLU(inplace=True)\n        (conv2): Conv2d(256, 256, kernel_size=(3, 3), stride=(1, 1), padding=(1, 1), bias=False)\n        (bn2): BatchNorm2d(256, eps=1e-05, momentum=0.1, affine=True, track_running_stats=True)\n      )\n    )\n    (layer4): Sequential(\n      (0): BasicBlock(\n        (conv1): Conv2d(256, 512, kernel_size=(3, 3), stride=(2, 2), padding=(1, 1), bias=False)\n        (bn1): BatchNorm2d(512, eps=1e-05, momentum=0.1, affine=True, track_running_stats=True)\n        (relu): ReLU(inplace=True)\n        (conv2): Conv2d(512, 512, kernel_size=(3, 3), stride=(1, 1), padding=(1, 1), bias=False)\n        (bn2): BatchNorm2d(512, eps=1e-05, momentum=0.1, affine=True, track_running_stats=True)\n        (downsample): Sequential(\n          (0): Conv2d(256, 512, kernel_size=(1, 1), stride=(2, 2), bias=False)\n          (1): BatchNorm2d(512, eps=1e-05, momentum=0.1, affine=True, track_running_stats=True)\n        )\n      )\n      (1): BasicBlock(\n        (conv1): Conv2d(512, 512, kernel_size=(3, 3), stride=(1, 1), padding=(1, 1), bias=False)\n        (bn1): BatchNorm2d(512, eps=1e-05, momentum=0.1, affine=True, track_running_stats=True)\n        (relu): ReLU(inplace=True)\n        (conv2): Conv2d(512, 512, kernel_size=(3, 3), stride=(1, 1), padding=(1, 1), bias=False)\n        (bn2): BatchNorm2d(512, eps=1e-05, momentum=0.1, affine=True, track_running_stats=True)\n      )\n    )\n    (avgpool): AdaptiveAvgPool2d(output_size=(1, 1))\n    (fc): Linear(in_features=512, out_features=1000, bias=True)\n  )\n  (dequant): DeQuantStub()\n)\n\n\n\n# blocks: conv1-bn1-relu, conv2-bn2\n# downsample: 0-1\n\nmodel.eval()\n\ntorch.quantization.fuse_modules(model.resnet, [['conv1', 'bn1', 'relu']], inplace=True)\n\nfor k1, m1 in model.resnet.named_children():\n    if \"layer\" in k1:  # in a sequential layer with basic blocks\n        for k2, m2 in m1.named_children():\n            torch.quantization.fuse_modules(m2, [[\"conv1\", \"bn1\", \"relu\"], [\"conv2\", \"bn2\"]], inplace=True)\n            # fuse downsample layers for skip connection if present\n            for k3, m3 in m2.named_children():\n                if \"downsample\" in k3:\n                    torch.quantization.fuse_modules(m3, [[\"0\", \"1\"]], inplace=True)\n                        \nmodel\n\nSequential(\n  (quant): QuantStub()\n  (resnet): ResNet(\n    (conv1): ConvReLU2d(\n      (0): Conv2d(3, 64, kernel_size=(7, 7), stride=(2, 2), padding=(3, 3))\n      (1): ReLU(inplace=True)\n    )\n    (bn1): Identity()\n    (relu): Identity()\n    (maxpool): MaxPool2d(kernel_size=3, stride=2, padding=1, dilation=1, ceil_mode=False)\n    (layer1): Sequential(\n      (0): BasicBlock(\n        (conv1): ConvReLU2d(\n          (0): Conv2d(64, 64, kernel_size=(3, 3), stride=(1, 1), padding=(1, 1))\n          (1): ReLU(inplace=True)\n        )\n        (bn1): Identity()\n        (relu): Identity()\n        (conv2): Conv2d(64, 64, kernel_size=(3, 3), stride=(1, 1), padding=(1, 1))\n        (bn2): Identity()\n      )\n      (1): BasicBlock(\n        (conv1): ConvReLU2d(\n          (0): Conv2d(64, 64, kernel_size=(3, 3), stride=(1, 1), padding=(1, 1))\n          (1): ReLU(inplace=True)\n        )\n        (bn1): Identity()\n        (relu): Identity()\n        (conv2): Conv2d(64, 64, kernel_size=(3, 3), stride=(1, 1), padding=(1, 1))\n        (bn2): Identity()\n      )\n    )\n    (layer2): Sequential(\n      (0): BasicBlock(\n        (conv1): ConvReLU2d(\n          (0): Conv2d(64, 128, kernel_size=(3, 3), stride=(2, 2), padding=(1, 1))\n          (1): ReLU(inplace=True)\n        )\n        (bn1): Identity()\n        (relu): Identity()\n        (conv2): Conv2d(128, 128, kernel_size=(3, 3), stride=(1, 1), padding=(1, 1))\n        (bn2): Identity()\n        (downsample): Sequential(\n          (0): Conv2d(64, 128, kernel_size=(1, 1), stride=(2, 2))\n          (1): Identity()\n        )\n      )\n      (1): BasicBlock(\n        (conv1): ConvReLU2d(\n          (0): Conv2d(128, 128, kernel_size=(3, 3), stride=(1, 1), padding=(1, 1))\n          (1): ReLU(inplace=True)\n        )\n        (bn1): Identity()\n        (relu): Identity()\n        (conv2): Conv2d(128, 128, kernel_size=(3, 3), stride=(1, 1), padding=(1, 1))\n        (bn2): Identity()\n      )\n    )\n    (layer3): Sequential(\n      (0): BasicBlock(\n        (conv1): ConvReLU2d(\n          (0): Conv2d(128, 256, kernel_size=(3, 3), stride=(2, 2), padding=(1, 1))\n          (1): ReLU(inplace=True)\n        )\n        (bn1): Identity()\n        (relu): Identity()\n        (conv2): Conv2d(256, 256, kernel_size=(3, 3), stride=(1, 1), padding=(1, 1))\n        (bn2): Identity()\n        (downsample): Sequential(\n          (0): Conv2d(128, 256, kernel_size=(1, 1), stride=(2, 2))\n          (1): Identity()\n        )\n      )\n      (1): BasicBlock(\n        (conv1): ConvReLU2d(\n          (0): Conv2d(256, 256, kernel_size=(3, 3), stride=(1, 1), padding=(1, 1))\n          (1): ReLU(inplace=True)\n        )\n        (bn1): Identity()\n        (relu): Identity()\n        (conv2): Conv2d(256, 256, kernel_size=(3, 3), stride=(1, 1), padding=(1, 1))\n        (bn2): Identity()\n      )\n    )\n    (layer4): Sequential(\n      (0): BasicBlock(\n        (conv1): ConvReLU2d(\n          (0): Conv2d(256, 512, kernel_size=(3, 3), stride=(2, 2), padding=(1, 1))\n          (1): ReLU(inplace=True)\n        )\n        (bn1): Identity()\n        (relu): Identity()\n        (conv2): Conv2d(512, 512, kernel_size=(3, 3), stride=(1, 1), padding=(1, 1))\n        (bn2): Identity()\n        (downsample): Sequential(\n          (0): Conv2d(256, 512, kernel_size=(1, 1), stride=(2, 2))\n          (1): Identity()\n        )\n      )\n      (1): BasicBlock(\n        (conv1): ConvReLU2d(\n          (0): Conv2d(512, 512, kernel_size=(3, 3), stride=(1, 1), padding=(1, 1))\n          (1): ReLU(inplace=True)\n        )\n        (bn1): Identity()\n        (relu): Identity()\n        (conv2): Conv2d(512, 512, kernel_size=(3, 3), stride=(1, 1), padding=(1, 1))\n        (bn2): Identity()\n      )\n    )\n    (avgpool): AdaptiveAvgPool2d(output_size=(1, 1))\n    (fc): Linear(in_features=512, out_features=1000, bias=True)\n  )\n  (dequant): DeQuantStub()\n)\n\n\n\n# back to train for QAT\nmodel.train()\n\ntorch.quantization.prepare_qat(model, inplace=True)\n\n# train ...\n\nmodel.eval()\ntorch.quantization.convert(model, inplace=True)\nmodel\n\nC:\\Users\\chris\\AppData\\Local\\Continuum\\anaconda3\\envs\\blog_env\\lib\\site-packages\\torch\\ao\\quantization\\observer.
…
